Model: "sequential"
_________________________________________________________________
 Layer (type)                Output Shape              Param #
=================================================================
 dense (Dense)               (None, 1024)              66560

 dense_1 (Dense)             (None, 4096)              4198400

 dense_2 (Dense)             (None, 4096)              16781312

 dense_3 (Dense)             (None, 2048)              8390656

 dense_4 (Dense)             (None, 64)                131136

=================================================================
Total params: 29,568,064
Trainable params: 29,568,064
Non-trainable params: 0
_________________________________________________________________
47696
1/1 [==============================] - 0s 486ms/step
[[… 371
ort